…
ize=(batch_size, 3, 32, 32), dtype=torch.float32) y = res_net(x) assert y.shape == (batch_size, num_classes) . Define Train and Eval loop . config[&#39;device&#39;] = &quot;cuda&quot; if torch.cuda.is_available() else &quot;cpu&quot; print(f&quot;device: {config[&#39;device&#39;]}&quot;) # define the network config[&#39;n&#39;] = 3 num_classes = 10 res_net = ResNet(n=config[&#39;n&#39;], num_classes=num_classes) res_net = res_net.to(config[&#39;device&#39;]) loss_fn = nn.CrossEntropyLoss() optimizer = optim.Adam(params=res_net.parameters()) . device: cuda . rich.print(res_net) . ResNet( (conv1): Conv2d(3, 16, kernel_size=(3, 3), stride=(1, 1), padding=(1, 1)) (resblock1_list): ModuleList( (0): ResNetBlock( (conv1): Conv2d(16, 16, kernel_size=(3, 3), stride=(1, 1), padding=(1, 1)) (bn1): BatchNorm2d(16, eps=1e-05, momentum=0.1, affine=True, track_running_stats=True) (relu1): ReLU() (conv2): Conv2d(16, 16, kernel_size=(3, 3), stride=(1, 1), padding=(1, 1)) (bn2): BatchNorm2d(16, eps=1e-05, momentum=0.1, affine=True, track_running_stats=True) (relu2): ReLU() ) (1): ResNetBlock( (conv1): Conv2d(16, 16, kernel_size=(3, 3), stride=(1, 1), padding=(1, 1)) (bn1): BatchNorm2d(16, eps=1e-05, momentum=0.1, affine=True, track_running_stats=True) (relu1): ReLU() (conv2): Conv2d(16, 16, kernel_size=(3, 3), stride=(1, 1), padding=(1, 1)) (bn2): BatchNorm2d(16, eps=1e-05, momentum=0.1, affine=True, track_running_stats=True) (relu2): ReLU() ) (2): ResNetBlock( (conv1): Conv2d(16, 16, kernel_size=(3, 3), stride=(1, 1), padding=(1, 1)) (bn1): BatchNorm2d(16, eps=1e-05, momentum=0.1, affine=True, track_running_stats=True) (relu1): ReLU() (conv2): Conv2d(16, 16, kernel_size=(3, 3), stride=(1, 1), padding=(1, 1)) (bn2): BatchNorm2d(16, eps=1e-05, momentum=0.1, affine=True, track_running_stats=True) (relu2): ReLU() ) ) (resblock2_list): ModuleList( (0): ResNetChangeBlock( (conv1): Conv2d(16, 32, kernel_size=(3, 3), stride=(2, 2), padding=(1, 1)) (bn1): BatchNorm2d(32, eps=1e-05, momentum=0.1, affine=True, track_running_stats=True) (relu1): ReLU() (conv2): Conv2d(32, 32, kernel_size=(3, 3), stride=(1, 1), padding=(1, 1)) (bn2): BatchNorm2d(32, eps=1e-05, momentum=0.1, affine=True, track_running_stats=True) (relu2): ReLU() ) (1): ResNetBlock( (conv1): Conv2d(32, 32, kernel_size=(3, 3), stride=(1, 1), padding=(1, 1)) (bn1): BatchNorm2d(32, eps=1e-05, momentum=0.1, affine=True, track_running_stats=True) (relu1): ReLU() (conv2): Conv2d(32, 32, kernel_size=(3, 3), stride=(1, 1), padding=(1, 1)) (bn2): BatchNorm2d(32, eps=1e-05, momentum=0.1, affine=True, track_running_stats=True) (relu2): ReLU() ) (2): ResNetBlock( (conv1): Conv2d(32, 32, kernel_size=(3, 3), stride=(1, 1), padding=(1, 1)) (bn1): BatchNorm2d(32, eps=1e-05, momentum=0.1, affine=True, track_running_stats=True) (relu1): ReLU() (conv2): Conv2d(32, 32, kernel_size=(3, 3), stride=(1, 1), padding=(1, 1)) (bn2): BatchNorm2d(32, eps=1e-05, momentum=0.1, affine=True, track_running_stats=True) (relu2): ReLU() ) ) (resblock3_list): ModuleList( (0): ResNetChangeBlock( (conv1): Conv2d(32, 64, kernel_size=(3, 3), stride=(2, 2), padding=(1, 1)) (bn1): BatchNorm2d(64, eps=1e-05, momentum=0.1, affine=True, track_running_stats=True) (relu1): ReLU() (conv2): Conv2d(64, 64, kernel_size=(3, 3), stride=(1, 1), padding=(1, 1)) (bn2): BatchNorm2d(64, eps=1e-05, momentum=0.1, affine=True, track_running_stats=True) (relu2): ReLU() ) (1): ResNetBlock( (conv1): Conv2d(64, 64, kernel_size=(3, 3), stride=(1, 1), padding=(1, 1)) (bn1): BatchNorm2d(64, eps=1e-05, momentum=0.1, affine=True, track_running_stats=True) (relu1): ReLU() (conv2): Conv2d(64, 64, kernel_size=(3, 3), stride=(1, 1), padding=(1, 1)) (bn2): BatchNorm2d(64, eps=1e-05, momentum=0.1, affine=True, track_running_stats=True) (relu2): ReLU() ) (2): ResNetBlock( (conv1): Conv2d(64, 64, kernel_size=(3, 3), stride=(1, 1), padding=(1, 1)) (bn1): BatchNorm2d(64, eps=1e-05, momentum=0.1, affine=True, track_running_stats=True) (relu1): ReLU() (conv2): Conv2d(64, 64, kernel_size=(3, 3), stride=(1, 1), padding=(1, 1)) (bn2): BatchNorm2d(64, eps=1e-05, momentum=0.1, affine=True, track_running_stats=True) (relu2): ReLU() ) ) (linear1): Linear(in_features=64, out_features=10, bias=True) ) . def train_fn(model: nn.Module, train_dataloader: dataloader.DataLoader, loss_fn, optimizer, epoch: int, device: str): model.train() for batch_index, (X, y) in tqdm(enumerate(train_dataloader), total=len(train_dataloader.dataset.indices)//config[&#39;batch_size&#39;]): X_data, y_data = X.to(device), y.to(device) y_pred = model(X_data) loss = loss_fn(y
…
